sanke/snake-ai-pytorch-main/model/model.pth (torch, 16799 bytes, 4 tensors)

linear1.weight f4 [256, 11]
-0.10462201 0.2442145 0.40460837 -0.13844542 -0.08079046 -0.052854333 0.10283754 0.13550761
0.2740118 0.06581837 -0.17990454 0.29498148 -0.5290884 0.44944313 0.1103478 -0.08026211
-0.22936457 -0.027950952 0.34546003 -0.059649214 0.28957844 0.10667504 0.122338265 0.509021
0.16427669 -0.2905867 -0.21075547 0.086350776 -0.19286123 0.11514935 0.26613587 0.25015384
0.028074846 0.23864356 0.40082246 -0.06954521 -0.02131809 -0.08752094 -0.19430836 -0.14166972
0.37483174 -0.114123054 -0.015194943 0.1813 0.51482683 -0.37414378 0.17376404 -0.25257036
-0.29734373 -0.15429924 -0.082362786 0.17179775 0.30887818 -0.22398832 -0.121528536 0.010918628
-0.31670308 0.5178201 0.259799 0.036241796 -0.019562474 0.18211445 0.22527644 -0.04448152
-0.01839249 -0.0612823 0.067512825 -0.057665285 -0.05982899 -0.06090224 -0.21993187 -0.11614188
0.19091745 -0.24773738 -0.25738817 -0.14987335 -0.03405377 0.38194546 -0.07755079 -0.21881549
-0.16873372 -0.17910402 -0.093381576 -0.30034164 0.21873803 -0.19596364 -0.08705632 -0.053777464
0.3259656 0.21408175 0.36333913 -0.038273737 0.23199753 0.0011931943 0.23768918 0.27870545
0.25555363 0.3723755 0.07927514 0.43764868 0.49293607 -0.13613662 0.22928567 -0.122627005
0.12024973 0.04491678 0.2960388 -0.16670915 -0.27782977 -0.17358042 0.41955936 0.32846183
0.31516254 0.099626385 -0.08794552 -0.31206018 0.10338508 0.24038343 0.08970271 0.27394968
0.18754335 0.32485667 0.29543892 0.32405862 0.11283637 0.17204376 -0.05112446 -0.05830422
-0.14332151 -0.25781506 0.17468801 0.017330414 0.093722366 0.483264 -0.2352998 0.17288198
0.20331755 0.30859113 -0.38505927 0.1465285 -0.38006154 -0.10022152 -0.17579156 -0.24962136
0.056351654 0.04247204 0.054371446 -0.00809487 -0.1474719 -0.3037924 0.33300087 0.20402592
0.0026218628 -0.33355328 -0.35139543 0.38218176 0.42589828 0.08294363 0.06606284 0.33900702
0.32465348 0.29594797 0.029654223 -0.021523442 0.04145288 -0.25096676 -0.120974615 0.3908563
-0.11423084 0.06685258 0.06928173 0.113354884 0.19539562 -0.034907058 -0.31107345 0.0028249691
0.3459688 -0.19023351 0.3857195 0.19286662 -0.036270063 -0.17916551 0.22038473 0.2642562
0.14179528 0.34340006 -0.0231467 -0.22733966 0.0761445 0.034135967 0.37661132 -0.11953676
-0.021667708 0.35324275 0.08392659 -0.36297286 -0.110526875 0.25846148 -0.08235005 -0.091382466
0.30535612 -0.002793649 0.10922695 -0.1772134 0.23164076 -0.04525517 0.1928401 -0.20259467
-0.24075623 0.10117155 0.032224137 0.17527616 -0.18085565 0.009692254 -0.25070584 -0.06382208
-0.16500652 -0.1801527 -0.31214216 -0.25631383 0.32046592 -0.29957828 -0.33214226 0.3238415
-0.30551323 0.17132927 0.19427428 -0.15684538 0.39091632 -0.070668556 -0.10500079 0.29893413
0.18418737 -0.10084164 0.20222183 0.05361433 -0.16743813 0.25839385 -0.20849818 -0.027195157
0.12568586 0.23476782 0.1976633 -0.27698684 0.5081855 0.23233034 -0.2450054 0.050180268
0.15708105 -0.060636938 0.17304718 -0.044451598 0.09759091 -0.19735444 0.049689207 0.09940232
00000000: 1044 d6bd 5e13 7a3e d428 cf3e a3c4 0dbe
00000010: 7875 a5bd c97d 58bd 7d9c d23d 82c2 0a3e
00000020: 464b 8c3e c8cb 863d e538 38be d007 973e
00000030: 5672 07bf 691d e63e 07fe e13d 7660 a4bd
00000040: 8cde 6abe 65f9 e4bc 23e0 b03e bc52 74bd
00000050: a043 943e 7278 da3d 7c8c fa3d 334f 023f
00000060: 2638 283e c8c7 94be 48d0 57be add8 b03d
00000070: 6a7d 45be 6cd3 eb3d f642 883e 2a14 803e
00000080: 38fd e53c fa5e 743e 9a38 cd3e b86d 8ebd
00000090: 46a3 aebc 2e3e b3bd c5f8 46be de11 11be
000000a0: f2e9 bf3e 59b9 e9bd 36f4 78bc b5a6 393e
000000b0: b1cb 033f c68f bfbe 33ef 313e e750 81be
000000c0: 703d 98be 9f00 1ebe d2ad a8bd c0eb 2f3e
000000d0: 4825 9e3e 325d 65be f4e3 f8bd 0ce4 323c
000000e0: e826 a2be dc8f 043f 6004 853e 4772 143d
000000f0: 7b41 a0bc 367c 3a3e deae 663e 4132 36bd
00000100: d9ab 96bc 2603 7bbd 2a44 8a3d 6f32 6cbd
00000110: 3e0f 75bd a174 79bd d235 61be cbdb edbd
00000120: dd7f 433e deae 7dbe 62c8 83be 6678 19be
00000130: f77b 0bbd 5b8e c33e f3d2 9ebd 2b11 60be
00000140: 88c8 2cbe 0b67 37be d73e bfbd 61c6 99be
00000150: ddfc 5f3e b1aa 48be 954a b2bd c245 5cbd
00000160: f7e4 a63e 3f38 5b3e 9607 ba3e ecc4 1cbd
00000170: c390 6d3e f564 9c3a cb64 733e 7bb2 8e3e
00000180: edd7 823e 00a8 be3e 015b a23d 7d13 e03e
00000190: 1e62 fc3e 6667 0bbe ddc9 6a3e de23 fbbd
000001a0: 7e45 f63d a8fa 373d 6692 973e ceb5 2abe
000001b0: b43f 8ebe 11bf 31be 7cd0 d63e 262c a83e
000001c0: fc5c a13e eb08 cc3d c81c b4bd 5ac6 9fbe
000001d0: 8fbb d33d 1327 763e 0eb6 b73d 2243 8c3e
000001e0: 5d0b 403e 9d53 a63e c543 973e 03eb a53e
000001f0: c116 e73d 3d2c 303e e267 51bd 68d0 6ebd
00000200: e0c2 12be 5600 84be 6ae1 323e 83f8 8d3c
00000210: 83f1 bf3d 616e f73e 6ef2 70be f907 313e
00000220: 7a32 503e a8ff 9d3e 7d26 c5be 910b 163e
00000230: 6d97 c2be f140 cdbd b402 34be be9c 7fbe
00000240: fed0 663d 29f7 2d3d 98b4 5e3d 58a0 04bc
00000250: e002 17be ad8a 9bbe 177f aa3e 2cec 503e
00000260: 8fd3 2b3b 7fc7 aabe 1aea b3be 54ad c33e
00000270: 570f da3e 5ade a93d f44b 873d 5492 ad3e
00000280: fb38 a63e 7e86 973e 6aed f23c ee51 b0bc
00000290: 7fca 293d b77e 80be 8ac1 f7bd 511e c83e
000002a0: dcf1 e9bd 01ea 883d 94e3 8d3d 9b26 e83d
000002b0: ca15 483e b4fa 0ebd 0545 9fbe 1e23 393b
000002c0: d322 b13e 93cc 42be 077d c53e d47e 453e
000002d0: eb8f 14bd 2a77 37be 89ac 613e 974c 873e
000002e0: c832 113e 22d2 af3e 269e bdbc bacb 68be
000002f0: a6f1 9b3d 28d2 0b3d 33d3 c03e b0cf f4bd
00000300: 7a80 b1bc 3cdc b43e b4e1 ab3d 94d7 b9be
00000310: ea5b e2bd 1055 843e 25a7 a8bd bb26 bbbd
00000320: a357 9c3e a715 37bb 61b2 df3d 6e77 35be
00000330: 3c33 6d3e 7c5d 39bd e077 453e fa74 4fbe
00000340: cd88 76be 0833 cf3d 75fd 033d 987b 333e
00000350: 3932 39be 42cc 1e3c 845c 80be 27b5 82bd
00000360: 78f7 28be f379 38be 19d1 9fbe 913b 83be
00000370: 1c14 a43e 5362 99be 8d0e aabe 8ece a53e
00000380: 3b6c 9cbe f170 2f3e d6ef 463e 139c 20be
00000390: 2f26 c83e adba 90bd a70a d7bd e50d 993e
000003a0: 9d9b 3c3e 1086 cebd 3d13 4f3e b39a 5b3d
000003b0: e774 2bbe 334c 843e 8c80 55be 61c8 debc
000003c0: cbb3 003e fa66 703e 4068 4a3e 38d1 8dbe
000003d0: 7218 023f 01e8 6d3e b2e2 7abe d389 4d3d
000003e0: dbd9 203e 705e 78bd 4833 313e e112 36bd
000003f0: bedd c73d 4817 4abe e986 4b3d 7293 cb3d

linear1.bias f4 [256]
0.3132944 -0.035419777 -0.24705847 0.3142044 0.3154476 -0.205824 0.22280928 -0.057115525
-0.013297805 0.112173535 0.05542192 0.018199144 0.07277261 -0.0064099086 0.16760415 0.19085036
-0.1173104 -0.13856256 -0.31936094 0.008513451 -0.091045454 0.12945166 0.045503996 0.16366886
0.2982987 -0.057613656 -0.098151386 -0.091825694 0.26731786 -0.051059987 -0.16031799 -0.16652171
-0.12431558 0.3636561 0.07073806 -0.017043062 0.11132662 0.19039372 0.2515157 0.18242279
-0.021840338 -0.1728621 -0.14040087 -0.010600215 0.07589924 0.13965823 0.14419116 -0.17892338
0.051226944 0.25067407 -0.24472558 0.11340862 0.02960244 -0.24931043 0.043939307 -0.15198864
-0.20099121 0.06379204 -0.023959452 -0.21492411 -0.19156961 -0.038256425 0.09752086 0.21634644
0.24025935 0.05322807 0.23233804 0.13482036 0.15526418 0.020556414 0.27258462 0.21171875
0.07873461 -0.12615804 -0.29392397 0.0902372 -0.063170314 -0.1300155 -0.13159287 -0.010481846
-0.088304624 -0.1213583 0.2757459 0.12969352 -0.004816391 -0.27600664 0.05830058 -0.1736824
0.2751438 0.09158284 -0.21289076 -0.3907436 0.18453328 0.03491708 -0.15480883 -0.03120403
0.21976274 -0.08331778 0.28055328 -0.051621486 -0.11295874 0.015163581 0.232699 0.035255264
-0.029980322 0.25332427 0.2657018 0.18804745 0.15537396 -0.010523149 0.21177274 0.20588286
-0.13487174 0.07376733 0.13593546 0.0779237 -0.014354939 -0.3415999 0.30544156 0.29058763
0.17632793 -0.016752314 0.028754286 -0.18065876 0.163684 0.22576469 -0.18617351 0.043805234
-0.14649653 -0.016860705 -0.20702827 0.1810509 -0.1944492 -0.18716164 -0.064988635 0.26384062
0.14207293 0.2786367 0.014819568 0.23524728 -0.13079081 0.09652782 -0.086243376 0.21598537
-0.03367038 0.05723343 -0.08241833 -0.21950647 -0.13882521 -0.0055719265 -0.20454627 -0.12977526
0.12435928 -0.016327294 0.11034315 -0.117308676 0.10411557 0.14634769 0.14213267 0.17360708
-0.011942311 -0.046577703 0.15961264 -0.25906852 0.050091453 0.087178305 0.12360936 0.15648866
0.13160244 -0.06894062 0.029290019 0.07170582 0.04890928 -0.23770316 -0.12712015 -0.0103627425
0.09163855 -0.19782294 0.17698112 0.24060751 0.16603258 0.056054667 -0.03155791 -0.22221081
0.15683632 0.18423147 0.13517599 -0.33007059 -0.16107965 -0.10309823 8.33066e-05 -0.2053162
0.08014742 0.16814926 -0.0648087 -0.15829754 -0.19362529 0.15898432 -0.032004114 -0.13459168
0.028491748 -0.09981691 -0.1790577 0.0011935107 0.22342083 -0.12301348 -0.025861975 0.11397108
-0.015883975 0.015991628 0.04091984 -0.21389407 0.08218766 0.098875366 -0.25727138 -0.17718025
-0.18381536 0.038243636 0.042844344 -0.23044527 0.005513742 0.37691215 -0.12939164 0.20692153
0.112221204 -0.17240603 -0.31646192 -0.056811027 0.2597995 0.19151123 -0.004433273 0.1435222
0.30476224 0.0559994 -0.009409909 -0.08368819 -0.046636816 0.007938069 -0.031907406 0.18622594
-0.09204361 -0.15931378 -0.22571307 -0.111460514 -0.1829099 -0.1904588 0.10783504 -0.11287147
-0.012962548 0.07198567 0.15351363 0.29456252 -0.09150013 -0.014375208 0.14042898 -0.012544802
00000000: 2068 a03e 5414 11bd e5fc 7cbe 66df a03e
00000010: 5982 a13e 87c3 52be 1e28 643e f8f1 69bd
00000020: 09df 59bc 3dbb e53d 1802 633d 5f16 953c
00000030: ce09 953d 360a d2bb 6ca0 2b3e 476e 433e
00000040: 6f40 f0bd 58e3 0dbe 4783 a3be 007c 0b3c
00000050: 0a76 babd fa8e 043e 6662 3a3d cf98 273e
00000060: 9bba 983e 4cfc 6bbd 9803 c9bd 1c0f bcbd
00000070: e3dd 883e 4724 51bd 662a 24be ab84 2abe
00000080: 2b99 febd 2231 ba3e 1edf 903d e49d 8bbc
00000090: 36ff e33d 92f6 423e aac6 803e 0acd 3a3e
000000a0: 82ea b2bc c302 31be 3fc5 0fbe 86ac 2dbc
000000b0: 1071 9b3d 9102 0f3e d9a6 133e b137 37be
000000c0: 58d3 513d 5a58 803e 5899 7abe c742 e83d
000000d0: d180 f23c 3c4b 7fbe b4f9 333d e9a2 1bbe
000000e0: a4d0 4dbe 67a5 823d 9d46 c4bc 1115 5cbe
000000f0: d32a 44be c5b2 1cbd 04b9 c73d ec89 5d3e
00000100: 8c06 763e ad05 5a3d 06ea 6d3e 590e 0a3e
00000110: 93fd 1e3e ed65 a83c 3690 8b3e cdcc 583e
00000120: 9c3f a13d 932f 01be 347d 96be 48ce b83d
00000130: 705f 81bd c922 05be 48c0 06be 0cbc 2bbc
00000140: 0ed9 b4bd b38a f8bd 912e 8d3e 61ce 043e
00000150: d1d2 9dbb be50 8dbe 97cc 6e3d cdd9 31be
00000160: a6df 8c3e c98f bb3d 0900 5abe 8c0f c8be
00000170: 4bf6 3c3e 3605 0f3d 3586 1ebe 989f ffbc
00000180: 7c09 613e 83a2 aabd aea4 8f3e 0d71 53bd
00000190: e956 e7bd ab70 783c a648 6e3e d367 103d
000001a0: 4b99 f5bc b8b3 813e 110a 883e 838f 403e
000001b0: 5a1a 1f3e 4969 2cbc f4da 583e f5d2 523e
000001c0: d11b 0abe 5313 973d aa32 0b3e 7696 9f3d
000001d0: fa30 6bbc 2fe6 aebe d662 9c3e e7c7 943e
000001e0: 4f8f 343e 263c 89bc 1c8e eb3c 9cfe 38be
000001f0: c79c 273e dc2e 673e 45a4 3ebe 1e6d 333d
00000200: 3003 16be 761f 8abc 38ff 53be 6865 393e
00000210: b11d 47be 4da7 3fbe c318 85bd 1e16 873e
00000220: 917b 113e 78a9 8e3e c6cd 723c aae4 703e
00000230: 07ee 05be 61b0 c53d 5ea0 b0bd 452b 5d3e
00000240: f4e9 09bd 9a6d 6a3d f1ca a8bd 4ec6 60be
00000250: 3228 0ebe b594 b6bb 9474 51be cee3 04be
00000260: 14b0 fe3d d1c0 85bc 97fb e13d 883f f0bd
00000270: 8b3a d53d 2bdc 153e 3a8b 113e 0ec6 313e
00000280: afa9 43bc 43c8 3ebd 7f71 233e a1a4 84be
00000290: b22c 4d3d 8a8a b23d e726 fd3d 903e 203e
000002a0: cac2 063e bd30 8dbd 9ff1 ef3c 80da 923d
000002b0: 1955 483d 7568 73be c92b 02be 7ec8 29bc
000002c0: feac bb3d 1992 4abe 8a3a 353e d161 763e
000002d0: 7204 2a3e 9499 653d de42 01bd 3b8b 63be
000002e0: b399 203e 2da7 3c3e 936b 0a3e 03ff a8be
000002f0: 10f2 24be 2a25 d3bd e4b4 ae38 693e 52be
00000300: 5524 a43d 522f 2c3e 6cba 84bd c018 22be
00000310: b545 46be c9cc 223e bf16 03bd 67d2 09be
00000320: 8767 e93c cf6c ccbd e75a 37be 936f 9c3a
00000330: 6ec8 643e 7eee fbbd 7edc d3bc ab69 e93d
00000340: 1c1f 82bc e000 833c 909b 273d 0c07 5bbe
00000350: 0152 a83d 2b7f ca3d 13b9 83be bd6e 35be
00000360: 183a 3cbe 5ca5 1c3d 8d7d 2f3d d8f9 6bbe
00000370: 9fac b43b a1fa c03e 3e7f 04be 3de3 533e
00000380: 3bd4 e53d 358b 30be 4c07 a2be aeb2 68bd
00000390: 7104 853e 851b 443e fd44 91bb 7cf7 123e
000003a0: cc09 9c3e a05f 653d 052c 1abc b764 abbd
000003b0: 3f06 3fbd ad0e 023c 57b1 02bd 03b2 3e3e
000003c0: 5c81 bcbd 2723 23be 5421 67be 6945 e4bd
000003d0: bc4c 3bbe a207 43be 9ed8 dc3d 2829 e7bd
000003e0: de60 54bc 396d 933d ad32 1d3e e6d0 963e
000003f0: 6c64 bbbd fe85 6bbc 9dcc 0f3e b788 4dbc

linear2.weight f4 [3, 256]
-0.0028397846 -0.20783535 0.04823377 -0.1200947 -0.17353651 0.055232372 0.14191534 -0.15767005
-0.13660176 -0.14013435 -0.121520676 -0.086599715 -0.005859146 0.17857069 0.071363226 0.06897354
-0.22020656 0.21486151 0.12434226 -0.014166788 -0.2520705 -0.11790546 -0.06143224 0.14093734
0.183004 0.063558705 0.19435163 0.06746913 0.10546014 -0.070384316 0.11344735 -0.29952124
-0.16126794 0.22406094 -0.058685847 0.2165185 -0.02265771 0.038172927 0.17506725 0.042524125
-0.21456915 0.04111778 0.04280245 -0.08266401 0.15532058 -0.06547389 -0.10000148 -0.097287215
0.19219683 0.26651323 0.052787475 0.18632479 -0.26569545 -0.36741826 -0.24510944 0.09883277
-0.060349494 0.12831648 -0.042901527 0.036159717 -0.08766518 -0.08068744 -0.022391913 0.021910792
0.19564159 -0.14720231 -0.04175589 -0.041888196 -0.10516821 0.08219642 0.17078035 -0.009563732
-0.029766584 0.23214452 0.039041817 -0.09580041 -0.12918457 -0.028274262 -0.28092247 -0.62113
-0.14917971 -0.15982708 0.1465757 -0.080709904 -0.0062084747 0.03451116 -0.18742022 0.060134474
0.07514887 0.12620254 0.006874033 -0.0068640495 0.21722786 0.022281153 -0.07021145 -0.38663042
0.12413371 0.16852 0.21476321 -0.018793894 -0.10542245 0.051649287 0.165382 -0.06369699
-0.070319876 -0.06733844 -0.050340842 0.30803788 -0.114494555 -0.0396527 0.06431054 0.26779482
-0.11566048 -0.28968596 -0.0031496093 0.1744685 -0.04160176 -0.03323261 0.08960737 -0.049412515
0.11089403 0.053448807 -0.09875239 0.16051207 -0.03506204 -0.08110112 0.12825644 -0.047188908
-0.29726365 0.06319864 0.015969975 0.28943613 -0.13865075 0.2078617 0.12162476 -0.013542744
-0.1034382 0.06612998 -0.21857794 0.092709474 0.02179083 -0.016133837 -0.08590593 -0.04736217
0.24829061 0.040005896 0.058863 -0.15012226 -0.18798567 -0.15770707 -0.15151909 -0.1218466
-0.1941163 -0.23506151 -0.08737722 -0.34638157 -0.21193655 -0.0017205874 -0.03466705 -0.017957069
0.028703472 0.11813177 -0.12635933 0.07241497 -0.09446856 0.24209131 -0.10978226 -0.18094459
0.08333012 -0.28908566 0.24202324 -0.05678142 -0.23205869 -0.27228755 -0.090204954 -0.14323235
-0.14170457 -0.18776532 -0.12062609 -0.028240092 0.16007902 0.098040506 -0.26885867 -0.35727352
0.13723138 -0.014331837 -0.12248909 -0.004900304 -0.029760616 -0.18452205 -0.12191705 -0.010237948
-0.0994149 0.14572318 0.15721901 0.019408477 0.053031255 -0.15283734 0.013145203 -0.0025122967
-0.23355347 0.19184339 -0.14133583 0.07537295 -0.00844489 -0.032615136 -0.041951083 -0.015581593
0.13581462 -0.13734102 -0.16561063 0.06945734 0.047402643 0.07914776 -0.0041639926 -0.14579022
-0.11189089 -0.06806552 -0.21877022 0.00044602156 -0.13250424 0.15425463 0.019306455 0.18201396
0.030289056 -0.22937848 -0.05291189 -0.35262185 0.03056337 0.05594008 -0.18585815 -0.14243759
0.12634817 -0.059320536 -0.20773956 -0.1887826 0.12713824 -0.022274664 -0.08440684 0.046493433
0.03939542 -0.15498455 -0.10971518 0.014181566 -0.060878336 0.16233583 -0.16453034 -0.23137525
-0.20041537 -0.21349898 -0.16363658 0.20870247 0.23458947 -0.16972642 -0.09178869 -0.21552218
00000000: ae1b 3abb cad2 54be c690 453d 36f4 f5bd
00000010: 8eb3 31be 573b 623d 4152 113e 4274 21be
00000020: 55e1 0bbe 617f 0fbe d5df f8bd 315b b1bd
00000030: 14fe bfbb 3cdb 363e e226 923d 0042 8d3d
00000040: d47d 61be a804 5c3e 28a7 fe3d d11b 68bc
00000050: 620f 81be 6b78 f1bd 5fa0 7bbd e151 103e
00000060: 6765 3b3e 112b 823d 1d04 473e 412d 8a3d
00000070: 7cfb d73d a725 90bd 1657 e83d d95a 99be
00000080: 6c23 25be 3b70 653e 9260 70bd 07b7 5d3e
00000090: a99c b9bc 375b 1c3d d444 333e c72d 2e3d
000000a0: 04b8 5bbe 1e6b 283d 9f51 2f3d c04b a9bd
000000b0: 5c0c 1f3e 2d17 86bd 93cd ccbd 853e c7bd
000000c0: 3fcf 443e 6c74 883e ae37 583d edcb 3e3e
000000d0: 3c09 88be 3f1e bcbe f8fd 7abe d668 ca3d
000000e0: 0831 77bd 6565 033e 83b9 2fbd 361c 143d
000000f0: cd89 b3bd 753f a5bd 3f6f b7bc 437e b33c
00000100: 4556 483e 34bc 16be 3908 2bbd f592 2bbd
00000110: 6e62 d7bd 9956 a83d 0be1 2e3e 33b1 1cbc
00000120: 0dd9 f3bc 4bb7 6d3e 50ea 1f3d 0133 c4bd
00000130: f648 04be 6d9f e7bc 12d5 8fbe 6002 1fbf
00000140: 91c2 18be b6a9 23be f117 163e 3c4b a5bd
00000150: 7670 cbbb 935b 0d3d 16eb 3fbe 914f 763d
00000160: a7e7 993d 3d3b 013e 913f e13b d2eb e0bb
00000170: fb70 5e3e f786 b63c 05cb 8fbd 6cf4 c5be
00000180: d139 fe3d 8290 2c3e e3ea 5b3e a7f5 99bc
00000190: bae7 d7bd 348e 533d e659 293e 9173 82bd
000001a0: de03 90bd bce8 89bd 3332 4ebd 24b7 9d3e
000001b0: 1f7c eabd df6a 22bd 3fb5 833d 671c 893e
000001c0: 67df ecbd b851 94be ad69 4ebb dfa7 323e
000001d0: 9b66 2abd eb1e 08bd 1284 b73d c764 4abd
000001e0: 691c e33d 23ed 5a3d b13e cabd 475d 243e
000001f0: 379d 0fbd 5818 a6bd a855 033e 2849 41bd
00000200: f132 98be 4a6e 813d 77d3 823c f930 943e
00000210: 76fa 0dbe b3d9 543e 6716 f93d 63e2 5dbc
00000220: 68d7 d3bd 286f 873d e5d2 5fbe 77de bd3d
00000230: af82 b23c 1c2b 84bc 73ef afbd d6fe 41bd
00000240: e53f 7e3e 39dd 233d 541a 713d a6b9 19be
00000250: 517f 40be f67d 21be d227 1bbe b68a f9bd
00000260: 6cc6 46be f7b3 70be d4f2 b2bd ed58 b1be
00000270: e505 59be 5585 e1ba 09ff 0dbd b41a 93bc
00000280: 8b23 eb3c 12ef f13d 5764 01be 4d4e 943d
00000290: bb78 c1bd c9e6 773e 86d5 e0bd 8a49 39be
000002a0: fba8 aa3d 0903 94be f1d4 773e a293 68bd
000002b0: cba0 6dbe 4669 8bbe 60bd b8bd 80ab 12be
000002c0: 011b 11be 8d45 40be d00a f7bd c457 e7bc
000002d0: c1eb 233e 76c9 c83d d8a7 89be 8eec b6be
000002e0: 6286 0c3e 15d0 6abc 8fdb fabd bb92 a0bb
000002f0: 89cc f3bc 59f3 3cbe a5af f9bd 11bd 27bc
00000300: 0a9a cbbd 7538 153e 05fe 203e 87fe 9e3c
00000310: 4d37 593d 6481 1cbe fa5e 573c 58a5 24bb
00000320: a428 6fbe 9872 443e 57ba 10be 225d 9a3d
00000330: 705c 0abc 7397 05bd e6d4 2bbd f049 7fbc
00000340: fd12 0b3e 20a3 0cbe d595 29be a63f 8e3d
00000350: 4629 423d 3918 a23d 1a72 88bb 084a 15be
00000360: 0d27 e5bd ef65 8bbd 4d05 60be 00d8 e939
00000370: 31af 07be edf4 1d3e 9228 9e3c de61 3a3e
00000380: c120 f83c 31e2 6abe 23ba 58bd da8a b4be
00000390: 0860 fa3c 6d21 653d 9951 3ebe 29db 11be
000003a0: 6a61 013e 17fa 72bd aeb9 54be 3a50 41be
000003b0: 8730 023e 5b79 b6bc 7edd acbd e66f 3e3d
000003c0: 185d 213d 45b4 1ebe 5ab2 e0bd cd59 683c
000003d0: 905b 79bd 5d3b 263e a47a 28be a2ed 6cbe
000003e0: b039 4dbe 7a9f 5abe 5990 27be 1ab6 553e
000003f0: 3938 703e c3cc 2dbe b5fb bbbd d9b1 5cbe

linear2.bias f4 [3]
0.0071284375 -0.030434405 -0.026152374
00000000: ab95 e93b 9351 f9bc 813d d6bc
